…
val_x.shape:(10000, 784) and val_y.shape:(10000,)
images are 28*28 = 784 vectors

train_x.shape:(60000, 784)
train_y.shape:(60000,)

train_x[0].shape:60000
train_x[1].shape:784

train_x.shape:(60000, 28, 28, 1)
train_y.shape:(60000,)
train_x[59999].shape: (28, 28, 1)

test_x.shape:(10000, 784)
test_x.shape:(10000, 28, 28, 1)
test_y.shape:(10000,)
train_y.shape:(60000, 10)
test_y.shape:(10000, 10)
Model: "sequential"
_________________________________________________________________
Layer (type)                 Output Shape              Param #   
=================================================================
conv2d (Conv2D)              (None, 24, 24, 32)        832       
_________________________________________________________________
max_pooling2d (MaxPooling2D) (None, 12, 12, 32)        0         
_________________________________________________________________
conv2d_1 (Conv2D)            (None, 10, 10, 64)        18496     
_________________________________________________________________
max_pooling2d_1 (MaxPooling2 (None, 5, 5, 64)          0         
_________________________________________________________________
flatten (Flatten)            (None, 1600)              0         
_________________________________________________________________
dense (Dense)                (None, 200)               320200    
_________________________________________________________________
dense_1 (Dense)              (None, 10)                2010      
=================================================================
Total params: 341,538
Trainable params: 341,538
Non-trainable params: 0
_________________________________________________________________
None
Train on 54000 samples, validate on 6000 samples
Epoch 1/3
   32/54000 [..............................] - ETA: 1:14:16 - loss: 2.2970 - acc: 0.1562
…
